examples/mnist/model.tflite (tflite, 34184 bytes, 20 tensors)

sequential_4/conv2d_18/BiasAdd/ReadVariableOp f4 [8]
00000000: 5054 bfbc d0d7 debc 501a 9abd fdac 7a3d
00000010: 0741 1fbd 32c2 44bc fc05 8ebd f0b9 ec3c
-0.023355633 -0.027202517 -0.0752455 0.06120013 -0.038880374 -0.01200919 -0.06934735 0.028897256

sequential_4/conv2d_19/BiasAdd/ReadVariableOp f4 [16]
00000000: a26b 0fbd 3b06 5cbd 053b 9fbe 29e7 81be
00000010: 0171 02bf f6ed acbe 823a eabd f2e8 f23a
00000020: 5032 8ebe d6ee c5be e698 dfbd 4940 28be
00000030: 741b e0bc adb8 13be 6f17 43be 96cc 9bbb
-0.035014756 -0.05371688 -0.31099716 -0.25371674 -0.5095368 -0.337753 -0.11436941 0.0018532558
-0.2777276 -0.3865878 -0.10917835 -0.16430773 -0.02735684 -0.14425917 -0.19051908 -0.004754613

sequential_4/conv2d_20/BiasAdd/ReadVariableOp f4 [16]
00000000: 124e 47be 2aab 83bd d845 a4bd 14fb 23bd
00000010: eaa1 633c a61c d3be eb15 b53e f627 b73e
00000020: e106 56be 435b cd3d 1086 97be 5d3f 25be
00000030: a488 1a3e a55d 3b3e 9536 36bd b6e8 f4bd
-0.19463375 -0.06429131 -0.08021134 -0.04003437 0.013893584 -0.41232795 0.35368285 0.35772675
-0.20901062 0.100271724 -0.2959447 -0.16137452 0.15091187 0.18297441 -0.044485647 -0.119584486

sequential_4/conv2d_21/BiasAdd/ReadVariableOp f4 [4]
00000000: ead0 ba3e 2d39 843e 469c eb3e b623 d03e
0.36487514 0.25824872 0.46017665 0.40652245

sequential_4/conv2d_22/BiasAdd/ReadVariableOp f4 [64]
00000000: b97c 0f3e 9e73 263e 5cf2 f73d c460 b43b
00000010: 2d25 c33d f8dd 713e c70c afbd 3248 32bb
00000020: 499e 01be 62a1 c1ba 8712 86bb b4b9 a53d
00000030: 6996 323d 3d03 cfbd 1534 223d 5946 41bc
00000040: 992d 17be a299 c83d be89 a13d cfe9 02be
00000050: be67 c03d 1fa6 103d f92f cdbb 319c 5a3d
00000060: 97b6 1c3e cf49 01be 47f3 e9bd b5c2 083d
00000070: 32d6 74bd 53c1 bebd af4e 7dbd 407a ddbc
00000080: 9b10 f8bc 973c 42be 48ad 883d c87a 2c3e
00000090: bb7a c03d 377c 46bc d663 643d cc14 553c
000000a0: e278 4f3e a929 f6bc f7e2 6fbd ca42 f23c
000000b0: 2c19 7abc db21 453e a72e b7bb 70bc f6bd
000000c0: 0f3a 51bc 069e 58bd 5505 053d 7379 22be
000000d0: 58a8 b23d f00c 9e3d aa76 9dbc e5fe 4c3c
000000e0: a97b b23c a799 35be d262 693c cf56 c7bd
000000f0: 9f46 8e3d d062 38bb 06ca b63d 9587 2d3e
0.14012422 0.16255042 0.12106773 0.0055046994 0.09528575 0.2361983 -0.08547359 -0.0027203676
-0.12658037 -0.0014772827 -0.004091564 0.08092061 0.043600474 -0.101080395 0.03960045 -0.011796557
-0.14763488 0.09794928 0.078876 -0.12784503 0.09394787 0.035314675 -0.0062618223 0.053371612
0.15304027 -0.12625812 -0.114233546 0.033388812 -0.059774585 -0.093142174 -0.061842617 -0.027035832
-0.030281356 -0.18968426 0.06673676 0.16843712 0.09398409 -0.012114576 0.055759273 0.013005447
0.20260957 -0.030049162 -0.05856606 0.029572863 -0.0152647905 0.19251196 -0.005590278 -0.1204766
-0.01277019 -0.052885078 0.03247579 -0.15866642 0.08723515 0.077173114 -0.019221622 0.0125119435
0.021787481 -0.17734395 0.014244752 -0.09733354 0.06947064 -0.0028135069 0.08925252 0.16946252

sequential_4/conv2d_23/BiasAdd/ReadVariableOp f4 [10]
00000000: 75f4 983d 3640 123e 5e76 c8bd ecfb d03d
00000010: 35ad b6bd 1df2 a23c 6964 e2bc e4e0 bcbd
00000020: 4e39 7e3d 0528 8ebd
0.074685015 0.14282307 -0.09788202 0.102043 -0.08919755 0.01989084 -0.02763577 -0.09222582
0.06206637 -0.06941227

sequential_4/conv2d_18/Conv2D f4 [8, 3, 3, 1]
00000000: 0725 363d 3d3a 09bd a670 b9bd 32db 85bc
00000010: ac3d eb3e 85cd 023e 79e8 00bf 444d a03d
00000020: 0671 d9bd 5834 5d3d 8312 30be 35a9 04bf
00000030: dc5e 45bd dbab ed3d e686 d63d 4e64 493d
00000040: 52f2 8d3c 352a c53e bf34 0c3e d101 b0be
00000050: c0a2 7ebe 828e 803e d0e5 a73d cc5e 4ebe
00000060: 0c95 2c3e 1ecc 103e d826 b73c 2855 b63d
00000070: 8363 7d3e 0d63 6d3e 09ba 01bf 7605 09bf
00000080: 45df bbbe 32f4 5e3e 75f9 863e c974 b5bd
00000090: 61ba 27be df6b 083e e934 b23d 5d06 c03d
000000a0: d453 6b3e c395 35be ec77 8d3d 7db6 233e
000000b0: b024 ecbe 26c3 85be 58a1 c1be 251b 913d
000000c0: c224 e03d 48bd 7bbe 8515 83bf b25f af3e
000000d0: eb02 9fbc e080 9ebe 4b12 83be bdf0 5fbc
000000e0: 1ca2 59bd bb9f 90be 6231 9d3e e4e5 6f3e
000000f0: 98d3 1cbd 798e 253e abba a23e 49c7 a0be
00000100: a01d 273e 888f 943e e5a3 ea3d 1c87 64ba
00000110: 5bdc ce3e 8a0f 793d ad76 0bbe f5d9 c0be
0.044468906 -0.033502806 -0.09054689 -0.016339872 0.4594549 0.12773712 -0.50354725 0.07827237
-0.10617261 0.054004997 -0.17194562 -0.5182069 -0.048186168 0.116050445 0.104749486 0.049167924
0.017327461 0.38508764 0.13691996 -0.34376386 -0.24866772 0.25108725 0.0819813 -0.2015335
0.16853732 0.14140365 0.02235739 0.08902961 0.24744992 0.23182316 -0.5067449 -0.5352396
-0.3669378 0.2177284 0.26362196 -0.088601656 -0.16379692 0.133224 0.08701498 0.09376214
0.22981197 -0.17732911 0.06907639 0.15987583 -0.4612174 -0.2612545 -0.37818408 0.070852555
0.10944511 -0.24583924 -1.0240942 0.34252697 -0.019410571 -0.309577 -0.25599894 -0.013668236
-0.053133115 -0.28246865 0.3070174 0.2342754 -0.03828773 0.1616763 0.3178304 -0.31402043
0.16319895 0.29015756 0.11457042 -0.00087176426 0.40402493 0.060805835 -0.1361949 -0.37666288

sequential_4/conv2d_19/Conv2D f4 [16, 3, 3, 8]
00000000: d433 2b3e dce7 9e3d e865 debd b011 5b3e
00000010: 0b32 abbd fa5d 0dbf 3753 66be 55a0 d4bc
00000020: ef41 ce3d 9c75 8e3e b118 5abd 0b65 b93e
00000030: e983 f1be c0e8 93be 9c82 9f3c 8fd3 dcbd
00000040: 7cd9 5e3e cba2 fcbd 2056 f93c 85a1 abbb
00000050: ece4 163d 5dec d1bc cf02 93bc 5dbb 203e
00000060: 6e7f 08be 8ca9 c13e dbeb 45be 4e60 dc3d
00000070: 4328 453d 1a1a 06bf c1e5 febd 445f 603e
00000080: a9cb 983c 9944 7b3d c1b6 61be db5b 213e
00000090: b442 99bd 5a24 debe c672 633e 1160 853d
000000a0: 6926 443b 78c2 af3c 2197 aa3d 3b15 acbe
000000b0: 3f90 273e 2617 b93d 31bd 633e 5c76 ea3d
000000c0: 05cc 833d 6421 153e c489 a9be 93d8 50be
000000d0: c190 763e f07a d8be ff38 babd 37b2 acbd
000000e0: d910 9bbd bbfe 0a3e ab02 95be 09ab 713d
000000f0: 299b 0bbe 31d2 d2be 8f0a 403e dc5b e33c
00000100: f7e0 f33d b085 16bd 1224 603d 8b56 a0be
00000110: 2bd3 373e dcbe c6bd 16b7 043f 5966 4e3e
00000120: 2514 8d3e af4e 04be cd74 9fbd e484 843e
00000130: 4c5d d9bd 61c8 4c3d a1f7 db3d 8bdd eb3c
00000140: e0a5 0fbe 32c2 68be 1138 0cbd c2b1 153e
00000150: ed32 babe 26fc 12be abc1 50be b362 60bd
00000160: 81bb ebba c548 eebe 41d2 0a3e 8eb9 3ebe
00000170: d35b c5bd 7ec0 69be f1a1 ac3e 8689 b23d
00000180: a1fb d0bd 1dbe 193d bafb 0f3e a155 713e
00000190: 3bd6 a5be 8d28 403e 28b8 6abe 976f 69be
000001a0: 3b0f bbbe 9f2a 5cbd a860 3dbb 9359 843d
000001b0: f692 55bd f696 e53c 25d9 e7bb 3364 96bc
000001c0: a533 8a3d c3b5 e9be d1b8 9fbe 8fe0 163e
000001d0: 9207 28be 10ae f2bd 7193 6d3d 6a63 aa3e
000001e0: 6f2d 0e3c da17 193e baf6 4a3e 15cb 1dbe
000001f0: b682 4cbe 603b e43e 990a 05be 70e2 14be
00000200: f042 9ebe a580 413b 0d1d 4d3e e232 b2bd
00000210: 65fe a9bc 8984 1e3e 058f 203e 4946 98bc
00000220: e82a 11bd 669a 90be dbd5 013e 21d3 6c3e
00000230: 9c95 a1bd a53c ab3e aea9 99be 171a f8bd
00000240: a8d1 573e cc7e cf3d 55ef 7bbe f4c6 1f3d
00000250: 9bed bb3c 7707 bebb d867 f4bc f309 a6bc
00000260: ef00 113e 5c67 0abf f6a8 133e 342a 11be
00000270: a602 8b3e d9c9 fdbd d590 a4bd 12b7 423e
00000280: 15e4 adbe fc82 8f3d 917b bbbd 0a0d 63be
00000290: db5d 29be ceae 67be 64a5 e6be 6541 26bf
000002a0: 4d5b efbd b09d 4dbe f5fc 33be 8cfc 97bd
000002b0: 167d e6bd 2ed3 6cbe d8c2 903e 77e5 223e
000002c0: 60b3 00bf a351 a8bd e2e2 1abe d637 073c
000002d0: dfe5 81bd 7927 45bc 97d3 06be aadc 33be
000002e0: dbc5 0c3e 74c4 f03d 84ca db3d 45d0 d73d
000002f0: 4c9d fdbd 24f0 3e3e 6dea 87bd f82a 123e
00000300: 3569 56be 31f9 cd3d 64e1 d33d e921 f63d
00000310: 07ca 673b b71f 133e 5f95 1a3d d541 193e
00000320: 2597 7a3c 0ef6 d43e 42b2 003d 94c1 b33c
00000330: 097c 8ebd 9041 6d3e 540f efbc 0868 903d
00000340: 133c 913e a02c 523e e01a 94bd 0657 b03d
00000350: 9934 953e 0487 4cbd dbc9 ee3d 323b b5bb
00000360: 30ac 253e de85 b4bd f610 2cbe 9924 fb3d
00000370: 5178 e1be 6ebd 963b e99a ccbd 5338 d6bd
00000380: 39a6 753e ce12 21bd 4706 5cbe 3bea f73d
00000390: 55ef 9cbd 1224 5b3d f4fb dc3d eee9 263e
000003a0: e97e 69bc 0a9a e9be c700 9bbe 94ba 373e
000003b0: 3eb1 353e 9be3 4fbd e5f1 8cbe 258e ab3d
000003c0: 9a8f c4be 698a 703c f239 8bbd 3547 13be
000003d0: 279b 74bc fca8 f13d 66df eebd ccc6 22bd
000003e0: db41 c8be 6019 a23e ee2c fbbd af19 ad3e
000003f0: 925b c2bd 9688 24be 3894 b9bd 5f19 0ebe
0.1671899 0.077590674 -0.10859281 0.21393466 -0.08359154 -0.5522152 -0.22492681 -0.025955359
0.100711696 0.27824104 -0.053246204 0.36209902 -0.47170952 -0.28888512 0.01947146 -0.10782539
0.21762651 -0.12335738 0.030436575 -0.0052377605 0.03683941 -0.025625402 -0.017945675 0.15696473
-0.1332986 0.37824667 -0.19328253 0.10760556 0.0481341 -0.5238358 -0.12446166 0.21911341
0.0186518 0.061344717 -0.22042371 0.15757696 -0.07483426 -0.4338711 0.22211751 0.06512464
0.002993012 0.021455035 0.08329607 -0.33609948 0.1636362 0.09037618 0.2224014 0.114483565
0.06435398 0.14563519 -0.3311292 -0.20395117 0.24078657 -0.42281294 -0.090929024 -0.08432429
-0.07571573 0.13573734 -0.29103598 0.059001002 -0.13633408 -0.41175988 0.18754028 0.027753763
0.11908143 -0.036748588 0.0547219 -0.31316027 0.17951648 -0.09704372 0.51841867 0.2015623
0.27554432 -0.1292064 -0.0778595 0.25882638 -0.10613498 0.049995784 0.10740591 0.028792163
-0.1402812 -0.2273033 -0.034233157 0.1461859 -0.36366978 -0.14354 -0.20386378 -0.054781627
-0.0017984958 -0.46539894 0.13556768 -0.18625471 -0.09636655 -0.22827336 0.337173 0.08717637
-0.102042444 0.03753482 0.1406087 0.23567821 -0.32390007 0.18765469 -0.22921813 -0.22796474
-0.36535057 -0.053751584 -0.0028896723 0.064623974 -0.052142106 0.028026085 -0.007075446 -0.018358326
0.06748132 -0.45646486 -0.3119569 0.147341 -0.16409138 -0.11849606 0.05800194 0.33278972
0.008677824 0.14950505 0.19820681 -0.15409501 -0.19971737 0.4457655 -0.12992324 -0.14539504
-0.30910444 0.002952614 0.20030613 -0.087011114 -0.020751188 0.15480246 0.15679558 -0.018588202
-0.03544131 -0.28242797 0.12679236 0.23127414 -0.07889864 0.33444706 -0.30012268 -0.12114351
0.21076071 0.101316065 -0.24603017 0.039008096 0.022940448 -0.0057992297 -0.029834673 -0.020268416
0.14160512 -0.54063964 0.14419922 -0.14176255 0.27150458 -0.12392015 -0.08035437 0.19015148
-0.33963075 0.07007405 -0.09154428 -0.22172943 -0.1653971 -0.22625276 -0.45048058 -0.64943534
-0.11687336 -0.20079684 -0.17576964 -0.07421216 -0.11254327 -0.23127434 0.28273654 0.15907846
-0.50273705 -0.08218696 -0.15125611 0.008253058 -0.063426726 -0.012033337 -0.13166653 -0.17564645
0.13747351 0.117562205 0.10731986 0.10537771 -0.123835176 0.18646294 -0.0663651 0.14274204
-0.20938571 0.10057295 0.10345724 0.120181866 0.003536822 0.14367567 0.037740108 0.14966519
0.015294825 0.41593975 0.03142 0.021942891 -0.069572516 0.23169541 -0.029182114 0.070510924
0.28366145 0.20524836 -0.072316885 0.086103484 0.2914169 -0.04993345 0.116595946 -0.0055307383
0.16178966 -0.08814596 -0.16803345 0.1226284 -0.44037107 0.0046002185 -0.09990484 -0.10459962
0.2398919 -0.039324574 -0.2148677 0.12105223 -0.076628365 0.053501196 0.10790244 0.16300175
-0.014251449 -0.45625335 -0.3027403 0.17942268 0.17743394 -0.05075417 -0.275283 0.08376721
-0.3839081 0.014681437 -0.067981616 -0.14382632 -0.014929569 0.11799809 -0.116637036 -0.03974037
-0.39112744 0.31659985 -0.12264429 0.33808658 -0.09490122 -0.16067728 -0.090614736 -0.13876866

sequential_4/conv2d_20/Conv2D f4 [16, 3, 3, 16]
00000000: cf08 7a3c 7541 82be 12af 073d 6b89 88be
00000010: 613f 2a3c 8a07 5abb 5330 e53d 63ea b5bb
00000020: 2e74 913e 7743 3abe a75b a63d bf5b 1bbe
00000030: 11dc afbd 6fe4 1ebd ac69 823e bfab 1a3c
00000040: 6b3e 603e 77d2 5fbe 8bab 3f3b b960 9f3e
00000050: b7f9 bd3c 0bfe 263e d455 203e c69e 1cbc
00000060: ff72 19be fb10 20be 1fb1 813e c845 3ebe
00000070: f09b b2bd ccbe 303e 29c4 983e 9cd5 10be
00000080: 71a7 9f3d 5ca4 6f3e 228a 403e 51aa 7d3e
00000090: 0771 423e 738c a93e a3ca 2ebc 5aaa f93d
000000a0: 54e9 f1bd d7b8 3d3b 81b5 95bd c201 e93d
000000b0: c268 323d ba6b fdbd a434 83bd 4e00 a7be
000000c0: cad3 b4bc f8fd fdbd cd12 e2bd 498b 11bd
000000d0: 0cf5 c43c 547f 06bd 5e7b b4bd 1826 2dbe
000000e0: 87c8 4bbd 3648 3fbe b87e 403e 1e39 9e3c
000000f0: 2bde ae3d 4540 b8bd 4a63 803d 447e 19be
00000100: 92c2 593d ed43 9ebe d508 1e3c af43 c53d
00000110: f5e7 02be 750b 723e 632c be3d 773b 0c3d
00000120: 22b4 33be 007d 99bd 91bb 823e b1cb 7f3d
00000130: 0f48 a7be d25e 33be 0684 8bbd 38fb fdbd
00000140: d6f6 e73d e8ff 5cbd 369f 86be d1ed 843d
00000150: a97e 013e 7cd8 10bd 040f e0bc c38e 023e
00000160: 5e1f 9d3e 252f 17be 213c 91bd 2c07 103d
00000170: 5f96 20be a342 2dbe fe32 abbe d507 6f3e
00000180: 1cbd 6dbd e8d1 ccbc 1e09 a0bd e9e9 31be
00000190: 7397 a93d a996 e03d 30af b3ba 178b fe3d
000001a0: 145a 533e b1dd 93be c577 5abe 181d b4b9
000001b0: 432f 623d 305a b9bb 8c24 8ebe 3222 be3c
000001c0: 6921 b9bd a501 103c 5c60 f0bd a4a1 44bd
000001d0: 066d b33d e474 78bb 468c a23e 2a78 50be
000001e0: 427e 65bd 2b23 d3bd 80cf 073d b63f 54bd
000001f0: a9bf 37be a460 6d3d c21e 753c bd32 08bf
00000200: 2553 a13e 40d1 d2be b483 963d d9f6 9abc
00000210: 11ea 3bbd 4d9a b43d 57d8 003e 080c 06bf
00000220: 0d76 90bd f7bf 953e 81ea 1ebd 3c27 cdbb
00000230: 2ad8 89be 23b4 353e 920e 0e3e 2e3e acbc
00000240: a918 98bd 8f80 aabb 8361 16be ca4b 2e3d
00000250: 950f 17be 0807 2ebc a024 143e aea7 1dbe
00000260: 3c19 073e 4d80 133d 6896 c93c 8c8d e93e
00000270: 1e54 11bc 8bc6 99bc 8f7b 9f3c a0a9 583e
00000280: 54ea 50be b7b7 77be 99a7 a6bd 4251 f83c
00000290: 52cb 2a3d 97a0 6e3d a4dd c13e 84e7 e8bd
000002a0: 08da 1abc 5c91 c5bd b5ca 3dbe fdaa 123e
000002b0: 98d7 263e 98f9 053e ea1c c23c 8dc5 f2bd
000002c0: 141f aebd cb29 42be 5644 65bd 9e3a 213e
000002d0: c4ad 973d 5641 f9bd e751 8a3c 73a6 b1be
000002e0: ee2d 15bd f2d2 eebd 0137 cfbc 6f05 173e
000002f0: 92c5 2d3e d7c8 9e3a b902 6a3e 3cad d63d
00000300: 6b47 95be 2e01 62bd a28c 893c 8e37 e43d
00000310: 8ed9 2abe 11e4 53bd 7c48 2a3e 7f3a 87be
00000320: f1cd ae3e 2692 4ebd 1d88 01bd 198d 873e
00000330: 51f0 543e fe36 fbbd 9ced 0abd dd76 f63d
00000340: cf3a 95bd 3f55 f1bb 6047 943e 4822 0e3d
00000350: 70d1 acbd 4bc0 c3bd 035a 383e cfc9 49be
00000360: 3a64 b0bd 7e91 19be 70bd f93d ca41 263d
00000370: bb3e 533e 8e18 7dbd 1b2f 6ebe b7a8 44be
00000380: cb36 b53d 8d3a 7abe cc6d 14bf 6385 d2be
00000390: bb10 4abc f0b4 6cbe 74a3 363d 2226 2c3e
000003a0: 57e9 90bd baaa b5be 3ef6 913d 656f 4b3e
000003b0: aca3 733d 9193 afbd c0aa bb3e c54a b2bd
000003c0: 7d85 02be 0c8c 813c 40c5 013d 0b48 7d3e
000003d0: 6e48 413e cd43 b4bc 5c2e 45bc 1c7d 2ebd
000003e0: 18eb 09be 490e f5bc 8dcc d83d 3273 c5bd
000003f0: 4e64 96be e5a0 9bbe 8c05 d0bd 3c84 1e3e
0.015260889 -0.25440565 0.033125944 -0.26667342 0.010391087 -0.0033268654 0.11190858 -0.0055516227
0.2840895 -0.18189798 0.0812295 -0.15171717 -0.08586896 -0.03879207 0.25471246 0.0094403615
0.2189881 -0.2185763 0.0029246535 0.3112848 0.023190362 0.16307847 0.15657741 -0.009559339
-0.14985274 -0.15631478 0.25330445 -0.18581307 -0.08721149 0.17260283 0.29837158 -0.14143986
0.07795609 0.23402542 0.18802693 0.24772002 0.18988429 0.33114967 -0.01066843 0.12190695
-0.11812082 0.0028949284 -0.0731001 0.113772884 0.043556936 -0.12374063 -0.06406525 -0.3261742
-0.022073645 -0.12401956 -0.11038742 -0.035533223 0.024042629 -0.032836273 -0.08812593 -0.16909063
-0.049751785 -0.1867989 0.1879834 0.019314345 0.08538469 -0.089966334 0.06268938 -0.14989573
0.053164072 -0.30911198 0.00964566 0.0963205 -0.12783797 0.23637183 0.0928581 0.034236398
-0.17549184 -0.07494545 0.25533727 0.062450115 -0.32672164 -0.1751664 -0.06812291 -0.12401432
0.11326377 -0.05395499 -0.26293343 0.064906724 0.12645973 -0.035362706 -0.02735091 0.12749772
0.30687994 -0.14764078 -0.07091547 0.03516309 -0.15682362 -0.16919951 -0.3343734 0.23342831
-0.058041677 -0.025002435 -0.07814239 -0.17374386 0.0828084 0.10966236 -0.0013708826 0.12428873
0.20639831 -0.28880075 -0.21334751 -0.00034353952 0.055220854 -0.005656503 -0.27762258 0.023209665
-0.090395756 0.008789455 -0.11737129 -0.048005715 0.08761029 -0.003791147 0.31747645 -0.20358339
-0.056028612 -0.10309442 0.03315687 -0.051818572 -0.17944206 0.05795349 0.0149609465 -0.5320242
0.31508747 -0.4117527 0.07349339 -0.018916534 -0.04587752 0.08818493 0.12582527 -0.5236211
-0.070537664 0.2924802 -0.03879786 -0.0062607806 -0.26922733 0.17744498 0.13872746 -0.021025743
-0.074265786 -0.0052033137 -0.14685635 0.042552747 -0.14752038 -0.010621794 0.14467096 -0.15395996
0.1319322 0.03601103 0.024607852 0.45615804 -0.008870153 -0.01877143 0.019468097 0.21158457
-0.20401889 -0.24191175 -0.081374355 0.030312184 0.041697808 0.05825862 0.3786441 -0.11372283
-0.009451397 -0.09646866 -0.18534358 0.1432304 0.1629318 0.13083494 0.023695428 -0.11854086
-0.085020214 -0.18961255 -0.055973373 0.15745017 0.0740619 -0.12170665 0.016884757 -0.34697303
-0.036420755 -0.116613284 -0.025294783 0.14748167 0.16969898 0.0012114298 0.22852601 0.104822606
-0.2915605 -0.055176906 0.016790692 0.11143409 -0.16684553 -0.051731173 0.16629213 -0.26411816
0.34141496 -0.050432347 -0.03162395 0.26474836 0.20794798 -0.12266348 -0.03391801 0.1203439
-0.072866075 -0.0073648985 0.28960705 0.034700662 -0.084383845 -0.09558161 0.18003087 -0.1970589
-0.08612867 -0.14996907 0.121943355 0.040590085 0.20629399 -0.061790995 -0.23260157 -0.19204985
0.088483416 -0.24436398 -0.57980037 -0.4111739 -0.01233309 -0.23115897 0.044589475 0.16811422
-0.07075756 -0.35481817 0.07127045 0.19866712 0.05948226 -0.08573068 0.3665371 -0.087056674
-0.12746234 0.01581385 0.031682253 0.24734513 0.18875286 -0.022004986 -0.012034979 -0.042599782
-0.13468587 -0.029914038 0.1058589 -0.096411124 -0.293734 -0.3039619 -0.10157308 0.15480131

sequential_4/conv2d_21/Conv2D f4 [4, 1, 1, 16]
00000000: 46b1 803e 0c24 9e3e 1601 4d3d 28bc 113f
00000010: 5aad edbe d23a b73d cff2 8a3e 9362 0b3f
00000020: 316f 7cbe b0c7 20bf b597 f13e 4408 4a3d
00000030: ccde bbbc 63c0 0abe 3b2d 073e 40cf 77be
00000040: c398 2f3e 2d9d dfbd 8e0e c1be b3db f0bd
00000050: fe8b 09bf 06be 573e 38a8 36bd 92bb b53e
00000060: 76b9 703e 5f40 7a3e 643f abbc 2aff e63e
00000070: 55af dabe 04a2 9e3e 857c cabe bdbd b3be
00000080: 79f2 27bf 71fc 643e c366 bcbe 0dfb 06be
00000090: b6c2 babe 8a7f 38be d9a0 8bbe a1f1 f83e
000000a0: 9664 abbd 9abb 053e d6fa 033f 0fee c6be
000000b0: 0263 853e 50de 803e dfce b73d af82 a6be
000000c0: 2785 90be e8a1 203f 7c31 813d ebf9 03be
000000d0: a913 afbd bab9 9d3e 588f 0d3f 9bb7 2cbe
000000e0: 0171 193f d975 1bbd d4ce ce3e ed7a 873e
000000f0: cb48 1dbe e893 093f 6acf 103e ac88 913e
0.2513525 0.30886877 0.050049864 0.5692773 -0.4642132 0.08946766 0.27138373 0.5444729
-0.24651791 -0.628047 0.47186056 0.04932429 -0.022933386 -0.13549952 0.13200848 -0.24200153
0.17148118 -0.10918651 -0.37706417 -0.11760654 -0.53729236 0.21068582 -0.04459402 0.35494667
0.23508248 0.24438618 -0.02090425 0.4511655 -0.42711893 0.30982983 -0.39548126 -0.35105696
-0.6560436 0.22361924 -0.3679715 -0.13181706 -0.36476678 -0.18017402 -0.27271155 0.48621848
-0.083687946 0.13059846 0.5155462 -0.388535 0.260521 0.2516961 0.089750044 -0.3252158
-0.28226587 0.6274705 0.063082665 -0.12888305 -0.08548672 0.3080576 0.5529685 -0.16866915
0.59938055 -0.037954185 0.40392172 0.26460972 -0.153598 0.5374131 0.14141622 0.28424585

sequential_4/conv2d_22/Conv2D f4 [64, 3, 3, 4]
00000000: 1a2e 1dbe 2845 5c3c 9e4a 6bbd 0d3b 053e
00000010: 6bbd 92be e590 713d 0850 66be 8fda 833d
00000020: 2721 21be 9e3d a0be f23d 103e 5cd0 aebb
00000030: 065b 8f3e 0164 12be 3b3a 003e 7bd3 313e
00000040: 43e3 6d3d 2b2e 8d3c 85e1 b23c 0c57 70bd
00000050: 3646 793d 094e 09be 795e 62be 0f77 dbbd
00000060: 7905 783e b188 cf3d 8d3d ff3e 5e63 3d3e
00000070: 4d0c 963c 5d3c e63e f73b 0439 33dc e7be
00000080: cc0c b03e c7f9 afbd 1bea c1be 8a36 c53c
00000090: e5dd 5b3c 8cbd 9ebe 69aa 45be 439e db3c
000000a0: 2183 ad3d f181 1fbf 7b0c 4fbd 6f29 adbe
000000b0: 9926 34be 5948 833d 0a6f 9fbd 2e5a e2bc
000000c0: b936 d8bd 3981 583b 51f6 45bd 559d 1b3e
000000d0: ea51 62be 2f9c 0b3d b79c a93d b398 4bbe
000000e0: 3166 9ebe d8a2 aa3e dd88 903e a525 d6be
000000f0: 7c2d 3fbe 88da 853d 0f5c 43be d263 a63e
00000100: 9970 7fbe 0168 71bc d299 b1be 2164 bcbc
00000110: 089b 9b3d 849e b9bd ec62 2dbe ba44 6cbd
00000120: cc97 07be 0e2d 9f3d c5c0 b93e cc41 943e
00000130: 3e16 bdbe be82 1dbe 8297 ecbd f71b e3bc
00000140: bb7e 0ebe d693 873d da6a bfbd 6ef6 d63e
00000150: 4d80 523b f3c7 e43e 23fa 413e fd0e 9d3d
00000160: 1a56 40bd 08b3 803e ea0a 053e 04d9 e93e
00000170: e878 9a3d 1692 0d3d 0817 adbe d5e5 5dbc
00000180: 4730 403e 14e0 733e 81a4 453e 58ae 333e
00000190: 37db 50be e5c3 b93e 3d86 f83d 8b8a 343c
000001a0: 63d9 27be 87a3 d3bd b7a0 693e c7d2 8c3d
000001b0: 17fe a1bd 7adf 463e 4c4a 073e 4fe3 17be
000001c0: 92b9 febe 8bd0 003e 07dd 3a3d f572 df3d
000001d0: dd36 6dbe 484b 3cbe b5fb f03e d9bd 3d3e
000001e0: 68ed f7bb 0767 be3d 7d78 8e3e 98a2 e9bc
000001f0: 4a2a 43be 8c8a 3bba 1e0e 8dbe eeca 4e3e
00000200: 0bcb 713e 021a 93bc 8f78 7dbe 0238 1b3e
00000210: f92c 86be 7605 68be 3074 07be 1725 cdbd
00000220: 4a5c 01be a33f 57bd c923 56be 9c73 783e
00000230: 7ec3 1dbe 0910 833e a8b7 95bd ddba a33e
00000240: dbf5 9fbc eea3 32be 2227 5d3d 28d2 8d3e
00000250: 3281 efbd f524 a43e 3d06 c4bc 8325 b53e
00000260: a2f9 14be abe6 b93e 48f1 863d b881 053f
00000270: ed87 be3d 3184 eabd 321d 283c 2a0a 973c
00000280: 4f3d 083e 878f bfbd ec2e a93d 48b5 3dbe
00000290: 5b8c 9fbe d6dd 3fbe 32dc c13d c488 ddbd
000002a0: 4b65 e83d ad1c 53be 2261 0b3d e8ca afbc
000002b0: f42a 483e 0bf3 0dbf 76da 873e eec2 8b3d
000002c0: 0851 20bc 88c8 cc3b cbe8 c6bc 8651 69be
000002d0: 7f49 6dbe 6ed8 d4bd 3bd0 afbe cfa3 e13d
000002e0: e71f 373e 4707 4d3e 192c f5bd 3228 cf3c
000002f0: fac1 0cbe bc6a b83c bc23 e33e 081f d13d
00000300: ec2d 1ebd 83f3 8fbe b8ca 8d3e a076 a73d
00000310: fcb5 b13e e41f 91be 3fd7 783e 52f5 07bd
00000320: 0401 05be a3fb fa3d 1fd4 85bd 207a 3abe
00000330: 58e9 443c 4653 2d3d aed1 553d 35e6 2dbe
00000340: 5d59 86be a58e 3fbd bcd3 95be d678 07be
00000350: 0174 c1be f132 1dbe ba0b 84bd 378b 04be
00000360: 18d1 afbc 0a53 02bd d8b9 7abe 4b6e b9bd
00000370: e7b7 89bd 15e9 853c 48e8 5bbe 4778 fdbd
00000380: 1d49 c6bd c416 debc 9ef1 23be 1009 e93c
00000390: 288f bd3c a77d 41be 4c9b b5be 2e6d 7f3e
000003a0: bcd5 eebd aa62 8b3c 495e 2abe 33db d0bd
000003b0: 1ddf 64bd 227c 4dbe a2ea d3bd a35a 323e
000003c0: 6df4 16be 63e4 513e ee13 0b3e 9859 babc
000003d0: 6f75 e93c 8986 e93d c7e8 ab3e 7a59 ebbe
000003e0: 3c60 9b3e 38af 08bd 6b64 773e 6d41 d63b
000003f0: bea1 283e 0544 763e 3711 3d3e 4077 b83d
-0.15349618 0.0134442225 -0.057444207 0.13010807 -0.2866014 0.058976073 -0.22491467 0.06438171
-0.15735303 -0.3129701 0.1408613 -0.005334897 0.27999133 -0.14295961 0.12522213 0.1736583
0.05807806 0.017233929 0.021836052 -0.058676764 0.060857974 -0.13408674 -0.22106351 -0.10716068
0.24220838 0.10133494 0.49851647 0.18494937 0.018316412 0.4496793 0.0001261084 -0.45285186
0.34384763 -0.08592563 -0.3787392 0.024073858 0.013419603 -0.31003988 -0.19303288 0.026808864
0.084722765 -0.6230765 -0.05054901 -0.33820674 -0.17592849 0.064102836 -0.07784851 -0.027630892
-0.105573125 0.0033036007 -0.04833061 0.15196736 -0.2210156 0.034084495 0.08281844 -0.19882469
-0.3093734 0.33327365 0.28229418 -0.41825595 -0.18669695 0.06535822 -0.19078086 0.32498032
-0.24945296 -0.014734269 -0.34687668 -0.022996964 0.07597929 -0.090634376 -0.16932267 -0.05768273
-0.132415 0.077722654 0.36279884 0.2895645 -0.36931032 -0.15381905 -0.11552335 -0.027723296
-0.13915531 0.06619994 -0.09346552 0.41984886 0.003211993 0.446838 0.18943076 0.076688744
-0.046957113 0.2513659 0.12992445 0.45673382 0.07542592 0.034563147 -0.33806634 -0.013543566
0.18768416 0.23815948 0.19301035 0.17546976 -0.20396124 0.36282268 0.12134979 0.011019359
-0.1639152 -0.10333925 0.22815214 0.0687614 -0.07909792 0.19421187 0.13211936 -0.14832805
-0.49750954 0.12579553 0.045620944 0.10910598 -0.2316546 -0.18388093 0.47067037 0.18529452
-0.007566143 0.09296995 0.278263 -0.028519914 -0.19059101 -0.0007154129 -0.27549833 0.20194599
0.23612611 -0.017956737 -0.2475302 0.15158084 -0.26206186 -0.22658333 -0.13227916 -0.1001684
-0.12632862 -0.052550923 -0.20912088 0.24262851 -0.15406606 0.2559817 -0.0731042 0.31978503
-0.019526413 -0.17445347 0.053992398 0.276994 -0.11694564 0.32059446 -0.023928756 0.35380182
-0.14548352 0.36308798 0.065889895 0.5215106 0.093032695 -0.11450995 0.010260867 0.018437464
0.13304637 -0.093535475 0.08260903 -0.18526185 -0.3116177 -0.18736967 0.09465827 -0.108171016
0.11347445 -0.20616408 0.03402818 -0.021459058 0.19547635 -0.5544898 0.2653386 0.06824289
-0.009784944 0.006249491 -0.024280926 -0.22785005 -0.23172568 -0.10392843 -0.34338555 0.11017572
0.17883264 0.20022307 -0.119713016 0.025287721 -0.13745871 0.022511832 0.443632 0.10210997
-0.038618013 -0.28115472 0.27693725 0.08176923 0.34709156 -0.28344643 0.2430086 -0.03319294
-0.12988669 0.12255027 -0.065345995 -0.1821065 0.012018524 0.042315744 0.05220192 -0.16982348
-0.26240054 -0.046766896 -0.29263103 -0.13229689 -0.37783816 -0.15351464 -0.06447549 -0.12943731
-0.021462008 -0.031817473 -0.24484956 -0.0905424 -0.0672453 0.016346494 -0.21475327 -0.12376457
-0.09681914 -0.027110465 -0.16010138 0.028446704 0.023139551 -0.18895589 -0.35470045 0.24943992
-0.1166186 0.01701482 -0.1663753 -0.10198059 -0.05587684 -0.20066884 -0.10347487 0.17417388
-0.14741679 0.20497279 0.13581821 -0.0227478 0.02849838 0.11402614 0.33576033 -0.45966703
0.30346859 -0.033370227 0.241594 0.006538561 0.1646795 0.24049385 0.18463598 0.0900712

sequential_4/conv2d_23/Conv2D f4 [10, 1, 1, 64]
00000000: c120 75bd ff6e 8cbe ed41 9b3e 717e 05be
00000010: a929 33bf 00ac 1cbf 9b9f af3e 5ff3 303f
00000020: 9070 31bf fabf 0fbb 7244 5abe 67a7 663e
00000030: c228 b23e c3cf 46be 76ea 983e b79a cf3d
00000040: 1997 633d 2cab fcbe 4bec 7abe ab66 b0be
00000050: 4f7c cf3e 9b8d eb3e 1f74 953d 45dd 81bf
00000060: cc6f a73e 96f8 68be 358f 993e 9cae 10be
00000070: 0bdd f8be 4326 9b3e b3a5 473d 1b24 76be
00000080: 6e18 22be b686 dcbc ba0d 9e3e 4496 e23e
00000090: 4c29 cc3e de7f 3bbf b110 b2be 9390 23be
000000a0: 20dd 8fbe d97b 5cbf bfa8 88be ebe5 d7bc
000000b0: efa4 fdbc 6479 43bf 948c 8cbd 9316 70bd
000000c0: e873 673e 5bf9 c1be 0e8e 0bbf 2f49 97be
000000d0: fd1d 513e 0f80 10bf 3379 27be f0cc 96be
000000e0: 24bc a4be d629 e43c 0e41 65be b1b8 cebe
000000f0: a233 3bbe 5e1c 893d e97c 7a3e 6376 83be
00000100: 25ed b33d 5874 cebe 9e93 bf3e 457b 0abf
00000110: ee72 d23e aba8 583e 5ec4 85bd 3497 22be
00000120: 99e9 c13c 2dd0 4d3e f831 4cbe 2733 83be
00000130: 46a1 4b3e 1b38 bd3d 75e8 2bbf 10ee ddbe
00000140: 078e 9dbe d2c2 8b3e b740 893d 497c bebe
00000150: fb69 14bf 92c0 f1bd e4a0 d53e b2b2 db3e
00000160: 3d7b cf3e 3169 1abf 685f dabe 823c 56bf
00000170: f442 29bf bad3 9cbe f109 e0be 8eba 3c3c
00000180: 873b 87be cd6d 85be ca07 02be bb91 32bd
00000190: 6ca3 94be e162 96be c69c 8fbd 070f 0a3f
000001a0: 3ea1 aa3e 0f6e 67be 60a0 69be 0879 963e
000001b0: b9e3 51be fb01 9abe 5109 00bf 6b01 43be
000001c0: b49b 37bf c9ac 6c3c c4b6 5d3e 4681 73bd
000001d0: 20b5 79bf 5bac 993e 7237 3abd b7ce 9a3e
000001e0: 5364 f43e c879 cc3e fd2b b2bd eab9 b93e
000001f0: 7d74 d2be 0323 9dbe dc4b 823e cbc1 e13d
00000200: 1db1 0ebd 1dbb fe3b feee 47bf ad14 98be
00000210: b0f9 2f3d 889c acbc 2e66 c03e 78ce dc3e
00000220: 55a1 413d f713 d0be a5c2 10bf d4bd 02bf
00000230: 7f3c 213e fa17 8a3e d470 fc3e f05a 18bf
00000240: 2f60 713e 8d84 973e 9ab8 abbe 4233 37bb
00000250: 6505 ffbe 4f24 9abe 87d6 47be 7482 f1bc
00000260: 0537 8c3e 4c82 c5be 7f03 883d a25a 353e
00000270: 32d6 953c f914 b8be 4415 8f3e 0ecb 99bd
00000280: 26a0 5b3e 8da5 663e 359e 683e 8e5f ccbe
00000290: 54ca 323e 8cac 20bf 7b90 b8bd 29cb 17bf
000002a0: 5b94 4abd d20d b9bc 5a2a 773e a960 e03e
000002b0: e9cb 363e 1cf6 d0be 7d41 b93d af38 9b3d
000002c0: e15c 2abf a4ea 0ebe a69a 453e ae08 db3d
000002d0: a204 ac3e 3233 693e c499 a83e 8c6a a33e
000002e0: f5ce 6bbf 2f96 78be 71d3 af3d 3b8f 64bd
000002f0: c489 d93e 32df b5bd 725d 96be a3ab 7dbf
00000300: b4a7 9fbe 86e5 da3e ee07 25be 5199 42be
00000310: 182a 01bf 8b99 623d d784 18be bec7 10bf
00000320: 0b5e 71be ee4f 7abe 532e b1be 3684 f23e
00000330: 2d93 f1be 3bc3 c33d a705 48be c66e 9abe
00000340: 60b9 783e 2996 8c3e ec86 0abf 80cb b03d
00000350: 6819 263e 8e8d 303e 010a aa3c f1df a9be
00000360: dc9e 30be 760e 19bf 5a96 b6be 4287 d73a
00000370: b9f9 e5bd 9b91 1dbf e295 68be 545d a63e
00000380: 294b f1be 0f68 e7bd 58eb 0f3d bfea 9e3e
00000390: 2970 1bbe 1bad 8e3d d71e 163e 74e9 42be
000003a0: d457 d93e 3f85 353e 74fe a33e c643 b0bd
000003b0: 8e9a 9f3e d92b ba3e e8f4 ae3b b080 94be
000003c0: 55a3 48be 4b66 2dbf 3fa2 243e 7f3d adbe
000003d0: 6f8d 86be d8eb dd3e 3725 debe cfca 8a3d
000003e0: 2444 25bf becc a43e a5ff b53e 6ce1 d8be
000003f0: b232 6a3b 60cf b5be c8f4 f1be 8e0b 953d
-0.05984569 -0.27428433 0.30323735 -0.13036515 -0.69985443 -0.6119995 0.34301457 0.69121355
-0.6931238 -0.0021934495 -0.21315172 0.22524796 0.3479672 -0.19415192 0.2986638 0.101369314
0.05556402 -0.49349344 -0.24504201 -0.3445333 0.40524527 0.46006474 0.07297539 -1.0145651
0.32702482 -0.22751078 0.2999207 -0.14129108 -0.48606142 0.3030263 0.048742007 -0.2403721
-0.15829632 -0.026919704 0.30869848 0.4425527 0.39875257 -0.73241985 -0.3477836 -0.1597312
-0.28098392 -0.86126477 -0.26691243 -0.02635475 -0.030962436 -0.763571 -0.06862751 -0.05861528
0.22602808 -0.37885556 -0.54513633 -0.29548022 0.20421596 -0.564454 -0.16354828 -0.2945323
-0.3217479 0.02785198 -0.22388098 -0.40375283 -0.18281415 0.06694864 0.24461712 -0.2567626
0.08785466 -0.40323138 0.3741731 -0.54094344 0.4110331 0.21158092 -0.06531595 -0.15877992
0.023670958 0.20098944 -0.19940937 -0.25624964 0.1988574 0.09239217 -0.67151576 -0.4334569
-0.3077242 0.27297074 0.067017965 -0.37204197 -0.57974213 -0.11804308 0.41724312 0.4290977
0.4052371 -0.6031676 -0.42650914 -0.8368608 -0.6611779 -0.30630285 -0.43757585 0.0115190875
-0.26412603 -0.26060334 -0.12698284 -0.04359601 -0.2903093 -0.29372314 -0.07012324 0.5392918
0.33326143 -0.22600578 -0.22815084 0.29389215 -0.20497026 -0.30079636 -0.50014216 -0.1904351
-0.7172196 0.014445492 0.21651751 -0.059449457 -0.97542 0.3001431 -0.045463033 0.30235836
0.4773279 0.39936662 -0.08699796 0.36274654 -0.41104499 -0.30690774 0.254485 0.11023291
-0.034836877 0.0077737705 -0.7809905 -0.29703274 0.04296273 -0.021070734 0.37577957 0.43126273
0.047273 -0.40640232 -0.56547004 -0.51070905 0.15745734 0.26971418 0.4930483 -0.5951376
0.23571847 0.29593316 -0.33539277 -0.0027954136 -0.49808803 -0.30105826 -0.1951543 -0.02948115
0.27385727 -0.3857597 0.06641292 0.17710355 0.018290613 -0.359535 0.27945912 -0.07509433
0.2144781 0.2252409 0.22716601 -0.39916652 0.17459995 -0.62763286 -0.090119325 -0.5929437
-0.04945789 -0.022589598 0.2413725 0.43823746 0.17851223 -0.40812767 0.09045694 0.07579171
-0.6654797 -0.13956696 0.19297275 0.10695015 0.33597285 0.22773436 0.32929814 0.31917226
-0.92112666 -0.2427604 0.08585251 -0.055800658 0.4248792 -0.08880462 -0.29368168 -0.9909002
-0.31182635 0.42753237 -0.16116306 -0.19003798 -0.50454855 0.05532221 -0.14894424 -0.5655478
-0.23571031 -0.24444553 -0.34605655 0.47366494 -0.471826 0.09558722 -0.19533406 -0.30162638
0.24289465 0.27458313 -0.54112124 0.086325645 0.16220629 0.17241499 0.020756723 -0.33178666
-0.172481 -0.5978769 -0.35661584 0.0016443508 -0.112292714 -0.615503 -0.22713426 0.3249308
-0.47127655 -0.112991445 0.03513655 0.31038472 -0.15179504 0.06966611 0.14660202 -0.19034368
0.4244982 0.1772661 0.3203007 -0.08606677 0.31172603 0.36361578 0.0053392537 -0.2900443
-0.19593556 -0.6773421 0.16077517 -0.3383598 -0.2627978 0.43343997 -0.43387768 0.06776964
-0.645571 0.32187456 0.35546604 -0.42359483 0.0035735783 -0.35509777 -0.47257066 0.072775945

sequential_4/batch_normalization_4/FusedBatchNormV3 f4 [8]
00000000: 42ce 9041 e7cb 4f41 bcb8 2a41 0b38 9a41
00000010: 7711 5641 1e9c d641 6dc0 b040 c91e f640
18.100712 12.987281 10.670101 19.277365 13.379264 26.82623 5.5234895 7.691258

sequential_4/batch_normalization_4/FusedBatchNormV31 f4 [8]
00000000: caa2 b1be 98f7 ffbd 5c1b debd 78c9 90bf
00000010: bc9e 8ebe e0a9 7ebc 188b 79be f868 eebe
-0.3469451 -0.12498397 -0.10845062 -1.1311483 -0.2785548 -0.015543431 -0.24369466 -0.4656446

sequential_4/batch_normalization_5/FusedBatchNormV3 f4 [16]
00000000: c65a 123f b17a af3f 91f4 913f 387b f13f
00000010: b5b6 0a3f bef7 413f 80dd 933f b53e 883f
00000020: 7193 ab3f bc51 993f 9d2e 1a40 0b80 863f
00000030: 1106 aa3f d820 ff3f b678 613f ddf8 923f
0.5716976 1.3709317 1.1402761 1.8865728 0.5418504 0.7576865 1.1551971 1.0644137
1.340437 1.1978068 2.409095 1.0507826 1.3283101 1.9931898 0.88074815 1.1482197

sequential_4/batch_normalization_5/FusedBatchNormV31 f4 [16]
00000000: 1d8c 43bf 50b6 35bf d81d 08bf 2762 7dbf
00000010: 9629 31bf dbd5 4fbf b840 15bf d959 29bf
00000020: 1642 fdbe 62aa e6be 57f9 4abf b941 06bf
00000030: 8b33 8ebf 3654 4bbf d82f 36bf d789 23bf
-0.7638567 -0.7098131 -0.5317054 -0.98977894 -0.6920408 -0.8118569 -0.5830188 -0.6615272
-0.49464482 -0.45051867 -0.7928671 -0.52444035 -1.110948 -0.7942537 -0.71166754 -0.638822

sequential_4/batch_normalization_6/FusedBatchNormV3 f4 [16]
00000000: a60e 143f 6238 2b3f ed92 153f 87b5 243f
00000010: bf46 023f e420 983f 4b77 353f cb42 103f
00000020: 8e33 3b3f 3989 223f 8ea9 0c3f 479c 0a3f
00000030: e2cf 0c3f 55ad f83e 4d0c 2a3f 97e6 383f
0.5783485 0.6688291 0.58427316 0.6433949 0.508892 1.1885037 0.7088515 0.5635192
0.7312554 0.63490635 0.5494622 0.5414471 0.55004704 0.48569742 0.6642502 0.7222685

sequential_4/batch_normalization_6/FusedBatchNormV31 f4 [16]
00000000: 19f4 b0bf 801f 623c 23eb 8ebf 0a5d 0bbf
00000010: c8e1 85bf 481e f63d 0c74 01bf ba9e 1fbf
00000020: 6af9 f7be 2070 76bf c0b5 6d3d 1255 37bf
00000030: e462 5cbf 524a b3be 40f1 43be 817a 58bf
-1.3824493 0.0138014555 -1.1165508 -0.5443884 -1.0459528 0.120174944 -0.505677 -0.6235157
-0.48432475 -0.9626484 0.05803466 -0.7161418 -0.86088395 -0.3501764 -0.19134998 -0.84561926

sequential_4/batch_normalization_7/FusedBatchNormV3 f4 [4]
00000000: 1beb 893f c808 b13f f390 9e3f 9f86 7c3f
1.0774873 1.3830805 1.2387985 0.98642915

sequential_4/batch_normalization_7/FusedBatchNormV31 f4 [4]
00000000: f3bd e6bf c8e9 d9bf ee0b 19c0 1dfe d5bf
-1.8026718 -1.7024469 -2.3913531 -1.6718174
